…
D:\cobaa\FourLLIE-main\.venv\lib\site-packages\torchvision\models\_utils.py:223: UserWarning: Arguments other than a weight enum or `None` for 'weights' are deprecated since 0.13 and may be removed in the future. The current behavior is equivalent to passing `weights=AlexNet_Weights.IMAGENET1K_V1`. You can also use `weights=AlexNet_Weights.DEFAULT` to get the most up-to-date weights.
  warnings.warn(msg)
Loading model from: D:\cobaa\FourLLIE-main\.venv\lib\site-packages\lpips\weights\v0.1\alex.pth
INFO:base:Network G structure: FourLLIE, with parameters: 119,446
INFO:base:FourLLIE(
  (AmpNet): Sequential(
    (0): AmplitudeNet_skip(
      (conv0): Sequential(
        (0): Conv2d(3, 8, kernel_size=(1, 1), stride=(1, 1))
        (1): ProcessBlock(
          (spatial_process): SpaBlock(
            (block): Sequential(
              (0): Conv2d(8, 8, kernel_size=(3, 3), stride=(1, 1), padding=(1, 1))
              (1): LeakyReLU(negative_slope=0.1, inplace=True)
              (2): Conv2d(8, 8, kernel_size=(3, 3), stride=(1, 1), padding=(1, 1))
              (3): LeakyReLU(negative_slope=0.1, inplace=True)
            )
          )
          (frequency_process): FreBlock(
            (fpre): Conv2d(8, 8, kernel_size=(1, 1), stride=(1, 1))
            (process1): Sequential(
              (0): Conv2d(8, 8, kernel_size=(1, 1), stride=(1, 1))
              (1): LeakyReLU(negative_slope=0.1, inplace=True)
              (2): Conv2d(8, 8, kernel_size=(1, 1), stride=(1, 1))
            )
            (process2): Sequential(
              (0): Conv2d(8, 8, kernel_size=(1, 1), stride=(1, 1))
              (1): LeakyReLU(negative_slope=0.1, inplace=True)
              (2): Conv2d(8, 8, kernel_size=(1, 1), stride=(1, 1))
            )
          )
          (cat): Conv2d(16, 8, kernel_size=(1, 1), stride=(1, 1))
        )
      )
      (conv1): ProcessBlock(
        (spatial_process): SpaBlock(
          (block): Sequential(
            (0): Conv2d(8, 8, kernel_size=(3, 3), stride=(1, 1), padding=(1, 1))
            (1): LeakyReLU(negative_slope=0.1, inplace=True)
            (2): Conv2d(8, 8, kernel_size=(3, 3), stride=(1, 1), padding=(1, 1))
            (3): LeakyReLU(negative_slope=0.1, inplace=True)
          )
        )
        (frequency_process): FreBlock(
          (fpre): Conv2d(8, 8, kernel_size=(1, 1), stride=(1, 1))
          (process1): Sequential(
            (0): Conv2d(8, 8, kernel_size=(1, 1), stride=(1, 1))
            (1): LeakyReLU(negative_slope=0.1, inplace=True)
            (2): Conv2d(8, 8, kernel_size=(1, 1), stride=(1, 1))
          )
          (process2): Sequential(
            (0): Conv2d(8, 8, kernel_size=(1, 1), stride=(1, 1))
            (1): LeakyReLU(negative_slope=0.1, inplace=True)
            (2): Conv2d(8, 8, kernel_size=(1, 1), stride=(1, 1))
          )
        )
        (cat): Conv2d(16, 8, kernel_size=(1, 1), stride=(1, 1))
      )
      (conv2): ProcessBlock(
        (spatial_process): SpaBlock(
          (block): Sequential(
            (0): Conv2d(8, 8, kernel_size=(3, 3), stride=(1, 1), padding=(1, 1))
            (1): LeakyReLU(negative_slope=0.1, inplace=True)
            (2): Conv2d(8, 8, kernel_size=(3, 3), stride=(1, 1), padding=(1, 1))
            (3): LeakyReLU(negative_slope=0.1, inplace=True)
          )
        )
        (frequency_process): FreBlock(
          (fpre): Conv2d(8, 8, kernel_size=(1, 1), stride=(1, 1))
          (process1): Sequential(
            (0): Conv2d(8, 8, kernel_size=(1, 1), stride=(1, 1))
            (1): LeakyReLU(negative_slope=0.1, inplace=True)
            (2): Conv2d(8, 8, kernel_size=(1, 1), stride=(1, 1))
          )
          (process2): Sequential(
            (0): Conv2d(8, 8, kernel_size=(1, 1), stride=(1, 1))
            (1): LeakyReLU(negative_slope=0.1, inplace=True)
            (2): Conv2d(8, 8, kernel_size=(1, 1), stride=(1, 1))
          )
        )
        (cat): Conv2d(16, 8, kernel_size=(1, 1), stride=(1, 1))
      )
      (conv3): ProcessBlock(
        (spatial_process): SpaBlock(
          (block): Sequential(
            (0): Conv2d(8, 8, kernel_size=(3, 3), stride=(1, 1), padding=(1, 1))
            (1): LeakyReLU(negative_slope=0.1, inplace=True)
            (2): Conv2d(8, 8, kernel_size=(3, 3), stride=(1, 1), padding=(1, 1))
            (3): LeakyReLU(negative_slope=0.1, inplace=True)
          )
        )
        (frequency_process): FreBlock(
          (fpre): Conv2d(8, 8, kernel_size=(1, 1), stride=(1, 1))
          (process1): Sequential(
            (0): Conv2d(8, 8, kernel_size=(1, 1), stride=(1, 1))
            (1): LeakyReLU(negative_slope=0.1, inplace=True)
            (2): Conv2d(8, 8, kernel_size=(1, 1), stride=(1, 1))
          )
          (process2): Sequential(
            (0): Conv2d(8, 8, kernel_size=(1, 1), stride=(1, 1))
            (1): LeakyReLU(negative_slope=0.1, inplace=True)
            (2): Conv2d(8, 8, kernel_size=(1, 1), stride=(1, 1))
          )
        )
        (cat): Conv2d(16, 8, kernel_size=(1, 1), stride=(1, 1))
      )
      (conv4): Sequential(
        (0): ProcessBlock(
          (spatial_process): SpaBlock(
            (block): Sequential(
              (0): Conv2d(16, 16, kernel_size=(3, 3), stride=(1, 1), padding=(1, 1))
              (1): LeakyReLU(negative_slope=0.1, inplace=True)
              (2): Conv2d(16, 16, kernel_size=(3, 3), stride=(1, 1), padding=(1, 1))
              (3): LeakyReLU(negative_slope=0.1, inplace=True)
            )
          )
          (frequency_process): FreBlock(
            (fpre): Conv2d(16, 16, kernel_size=(1, 1), stride=(1, 1))
            (process1): Sequential(
              (0): Conv2d(16, 16, kernel_size=(1, 1), stride=(1, 1))
              (1): LeakyReLU(negative_slope=0.1, inplace=True)
              (2): Conv2d(16, 16, kernel_size=(1, 1), stride=(1, 1))
            )
            (process2): Sequential(
              (0): Conv2d(16, 16, kernel_size=(1, 1), stride=(1, 1))
              (1): LeakyReLU(negative_slope=0.1, inplace=True)
              (2): Conv2d(16, 16, kernel_size=(1, 1), stride=(1, 1))
            )
          )
          (cat): Conv2d(32, 16, kernel_size=(1, 1), stride=(1, 1))
        )
        (1): Conv2d(16, 8, kernel_size=(1, 1), stride=(1, 1))
      )
      (conv5): Sequential(
        (0): ProcessBlock(
          (spatial_process): SpaBlock(
            (block): Sequential(
              (0): Conv2d(16, 16, kernel_size=(3, 3), stride=(1, 1), padding=(1, 1))
              (1): LeakyReLU(negative_slope=0.1, inplace=True)
              (2): Conv2d(16, 16, kernel_size=(3, 3), stride=(1, 1), padding=(1, 1))
              (3): LeakyReLU(negative_slope=0.1, inplace=True)
            )
          )
          (frequency_process): FreBlock(
            (fpre): Conv2d(16, 16, kernel_size=(1, 1), stride=(1, 1))
            (process1): Sequential(
              (0): Conv2d(16, 16, kernel_size=(1, 1), stride=(1, 1))
              (1): LeakyReLU(negative_slope=0.1, inplace=True)
              (2): Conv2d(16, 16, kernel_size=(1, 1), stride=(1, 1))
            )
            (process2): Sequential(
              (0): Conv2d(16, 16, kernel_size=(1, 1), stride=(1, 1))
              (1): LeakyReLU(negative_slope=0.1, inplace=True)
              (2): Conv2d(16, 16, kernel_size=(1, 1), stride=(1, 1))
            )
          )
          (cat): Conv2d(32, 16, kernel_size=(1, 1), stride=(1, 1))
        )
        (1): Conv2d(16, 8, kernel_size=(1, 1), stride=(1, 1))
      )
      (convout): Sequential(
        (0): ProcessBlock(
          (spatial_process): SpaBlock(
            (block): Sequential(
              (0): Conv2d(16, 16, kernel_size=(3, 3), stride=(1, 1), padding=(1, 1))
              (1): LeakyReLU(negative_slope=0.1, inplace=True)
              (2): Conv2d(16, 16, kernel_size=(3, 3), stride=(1, 1), padding=(1, 1))
              (3): LeakyReLU(negative_slope=0.1, inplace=True)
            )
          )
          (frequency_process): FreBlock(
            (fpre): Conv2d(16, 16, kernel_size=(1, 1), stride=(1, 1))
            (process1): Sequential(
              (0): Conv2d(16, 16, kernel_size=(1, 1), stride=(1, 1))
              (1): LeakyReLU(negative_slope=0.1, inplace=True)
              (2): Conv2d(16, 16, kernel_size=(1, 1), stride=(1, 1))
            )
            (process2): Sequential(
              (0): Conv2d(16, 16, kernel_size=(1, 1), stride=(1, 1))
              (1): LeakyReLU(negative_slope=0.1, inplace=True)
              (2): Conv2d(16, 16, kernel_size=(1, 1), stride=(1, 1))
            )
          )
          (cat): Conv2d(32, 16, kernel_size=(1, 1), stride=(1, 1))
        )
        (1): Conv2d(16, 3, kernel_size=(1, 1), stride=(1, 1))
      )
    )
    (1): Sigmoid()
  )
  (conv_first_1): Conv2d(6, 16, kernel_size=(3, 3), stride=(1, 1), padding=(1, 1))
  (conv_first_2): Conv2d(16, 16, kernel_size=(3, 3), stride=(2, 2), padding=(1, 1))
  (conv_first_3): Conv2d(16, 16, kernel_size=(3, 3), stride=(2, 2), padding=(1, 1))
  (feature_extraction): Sequential(
    (0): ResidualBlock_noBN(
      (conv1): Conv2d(16, 16, kernel_size=(3, 3), stride=(1, 1), padding=(1, 1))
      (conv2): Conv2d(16, 16, kernel_size=(3, 3), stride=(1, 1), padding=(1, 1))
    )
  )
  (recon_trunk): Sequential(
    (0): ResidualBlock_noBN(
      (conv1): Conv2d(16, 16, kernel_size=(3, 3), stride=(1, 1), padding=(1, 1))
      (conv2): Conv2d(16, 16, kernel_size=(3, 3), stride=(1, 1), padding=(1, 1))
    )
  )
  (upconv1): Conv2d(32, 64, kernel_size=(3, 3), stride=(1, 1), padding=(1, 1))
  (upconv2): Conv2d(32, 64, kernel_size=(3, 3), stride=(1, 1), padding=(1, 1))
  (pixel_shuffle): PixelShuffle(upscale_factor=2)
  (HRconv): Conv2d(32, 16, kernel_size=(3, 3), stride=(1, 1), padding=(1, 1))
  (conv_last): Conv2d(16, 3, kernel_size=(3, 3), stride=(1, 1), padding=(1, 1))
  (lrelu): LeakyReLU(negative_slope=0.1, inplace=True)
  (transformer): SFNet(
    (conv1): ProcessBlock(
      (spatial_process): Identity()
      (frequency_process): FreBlock(
        (fpre): Conv2d(16, 16, kernel_size=(1, 1), stride=(1, 1))
        (process1): Sequential(
          (0): Conv2d(16, 16, kernel_size=(1, 1), stride=(1, 1))
          (1): LeakyReLU(negative_slope=0.1, inplace=True)
          (2): Conv2d(16, 16, kernel_size=(1, 1), stride=(1, 1))
        )
        (process2): Sequential(
          (0): Conv2d(16, 16, kernel_size=(1, 1), stride=(1, 1))
          (1): LeakyReLU(negative_slope=0.1, inplace=True)
          (2): Conv2d(16, 16, kernel_size=(1, 1), stride=(1, 1))
        )
      )
      (cat): Conv2d(16, 16, kernel_size=(1, 1), stride=(1, 1))
    )
    (conv2): ProcessBlock(
      (spatial_process): Identity()
      (frequency_process): FreBlock(
        (fpre): Conv2d(16, 16, kernel_size=(1, 1), stride=(1, 1))
        (process1): Sequential(
          (0): Conv2d(16, 16, kernel_size=(1, 1), stride=(1, 1))
          (1): LeakyReLU(negative_slope=0.1, inplace=True)
          (2): Conv2d(16, 16, kernel_size=(1, 1), stride=(1, 1))
        )
        (process2): Sequential(
          (0): Conv2d(16, 16, kernel_size=(1, 1), stride=(1, 1))
          (1): LeakyReLU(negative_slope=0.1, inplace=True)
          (2): Conv2d(16, 16, kernel_size=(1, 1), stride=(1, 1))
        )
      )
      (cat): Conv2d(16, 16, kernel_size=(1, 1), stride=(1, 1))
    )
    (conv3): ProcessBlock(
      (spatial_process): Identity()
      (frequency_process): FreBlock(
        (fpre): Conv2d(16, 16, kernel_size=(1, 1), stride=(1, 1))
        (process1): Sequential(
          (0): Conv2d(16, 16, kernel_size=(1, 1), stride=(1, 1))
          (1): LeakyReLU(negative_slope=0.1, inplace=True)
          (2): Conv2d(16, 16, kernel_size=(1, 1), stride=(1, 1))
        )
        (process2): Sequential(
          (0): Conv2d(16, 16, kernel_size=(1, 1), stride=(1, 1))
          (1): LeakyReLU(negative_slope=0.1, inplace=True)
          (2): Conv2d(16, 16, kernel_size=(1, 1), stride=(1, 1))
        )
      )
      (cat): Conv2d(16, 16, kernel_size=(1, 1), stride=(1, 1))
    )
    (conv4): ProcessBlock(
      (spatial_process): Identity()
      (frequency_process): FreBlock(
        (fpre): Conv2d(16, 16, kernel_size=(1, 1), stride=(1, 1))
        (process1): Sequential(
          (0): Conv2d(16, 16, kernel_size=(1, 1), stride=(1, 1))
          (1): LeakyReLU(negative_slope=0.1, inplace=True)
          (2): Conv2d(16, 16, kernel_size=(1, 1), stride=(1, 1))
        )
        (process2): Sequential(
          (0): Conv2d(16, 16, kernel_size=(1, 1), stride=(1, 1))
          (1): LeakyReLU(negative_slope=0.1, inplace=True)
          (2): Conv2d(16, 16, kernel_size=(1, 1), stride=(1, 1))
        )
      )
      (cat): Conv2d(16, 16, kernel_size=(1, 1), stride=(1, 1))
    )
    (conv5): ProcessBlock(
      (spatial_process): Identity()
      (frequency_process): FreBlock(
        (fpre): Conv2d(16, 16, kernel_size=(1, 1), stride=(1, 1))
        (process1): Sequential(
          (0): Conv2d(16, 16, kernel_size=(1, 1), stride=(1, 1))
          (1): LeakyReLU(negative_slope=0.1, inplace=True)
          (2): Conv2d(16, 16, kernel_size=(1, 1), stride=(1, 1))
        )
        (process2): Sequential(
          (0): Conv2d(16, 16, kernel_size=(1, 1), stride=(1, 1))
          (1): LeakyReLU(negative_slope=0.1, inplace=True)
          (2): Conv2d(16, 16, kernel_size=(1, 1), stride=(1, 1))
        )
      )
      (cat): Conv2d(16, 16, kernel_size=(1, 1), stride=(1, 1))
    )
  )
  (recon_trunk_light): Sequential(
    (0): ResidualBlock_noBN(
      (conv1): Conv2d(16, 16, kernel_size=(3, 3), stride=(1, 1), padding=(1, 1))
      (conv2): Conv2d(16, 16, kernel_size=(3, 3), stride=(1, 1), padding=(1, 1))
    )
    (1): ResidualBlock_noBN(
      (conv1): Conv2d(16, 16, kernel_size=(3, 3), stride=(1, 1), padding=(1, 1))
      (conv2): Conv2d(16, 16, kernel_size=(3, 3), stride=(1, 1), padding=(1, 1))
    )
    (2): ResidualBlock_noBN(
      (conv1): Conv2d(16, 16, kernel_size=(3, 3), stride=(1, 1), padding=(1, 1))
      (conv2): Conv2d(16, 16, kernel_size=(3, 3), stride=(1, 1), padding=(1, 1))
    )
    (3): ResidualBlock_noBN(
      (conv1): Conv2d(16, 16, kernel_size=(3, 3), stride=(1, 1), padding=(1, 1))
      (conv2): Conv2d(16, 16, kernel_size=(3, 3), stride=(1, 1), padding=(1, 1))
    )
    (4): ResidualBlock_noBN(
      (conv1): Conv2d(16, 16, kernel_size=(3, 3), stride=(1, 1), padding=(1, 1))
      (conv2): Conv2d(16, 16, kernel_size=(3, 3), stride=(1, 1), padding=(1, 1))
    )
    (5): ResidualBlock_noBN(
      (conv1): Conv2d(16, 16, kernel_size=(3, 3), stride=(1, 1), padding=(1, 1))
      (conv2): Conv2d(16, 16, kernel_size=(3, 3), stride=(1, 1), padding=(1, 1))
    )
  )
)
INFO:base:Loading model for G [./pre-trained/nikon.pth] ...
INFO:base:Model [enhancement_model] is created.
mkdir finish
25-10-20 14:20:18.206 - INFO: Dataset [ll_dataset - test] is created.
INFO:base:Dataset [ll_dataset - test] is created.
[                                                  ] 0/30, elapsed: 0s, ETA:
[>>>>>>>>>>>>>>>>>>>>>>>>>>>>>>>>>>>>>>>>>>>>>>>>>>] 30/30, 1.9 task/s, elapsed: 16s, ETA:     0s
…
